model.pt (torch, 121016 bytes, 26 tensors)

weight f4 [32, 1, 80]
00000000: 014d 62be 3121 cebd 699a 8fbe 0c0e e4be
00000010: 121b aebe 1c26 cbbe b81e fdbe b103 c8be
00000020: 4100 8cbe bbc8 adbe 0933 abbe 330d c7bd
00000030: ab7b f4bd 8498 edbd a73c 263c c6c9 3d3e
00000040: 8338 4e3e 1f4f 8a3e a56e 9c3e 3f61 723e
00000050: 8878 703e a2ac ad3e 4e59 8a3e eaa4 fd3d
00000060: ff8b 213e 337f 6c3e 7e8f 8d3e a28a 8f3e
00000070: fb76 843e 6b36 a33e 62d0 a53e ac97 863e
00000080: 8e66 553e d222 273e c9c3 5abd 142e 69be
00000090: 54c0 d3be 46b6 cebe 2b8c cabe aa36 febe
000000a0: 3da2 1abf c24d cebe 404d 76be eddb b6be
000000b0: 6757 a4be 63c4 5dbe f83f c8bd a315 a8bc
000000c0: 5762 5c3d 01f8 a73d 271e 573d 013b d73d
000000d0: 55b4 d33d be6d 11bc 2ff0 f93d 5b70 5abb
000000e0: decb bd3d f0b7 af3e 39a4 743e 0874 933e
000000f0: a874 a63e b6c5 aa3e 3cee 823e de28 973e
00000100: fa75 313e 9c66 cb3d 776a cf3d 5a48 863d
00000110: 0ddb f8bb a65b 933c 2b10 d73c 5348 3ebe
00000120: b362 1c3a 515c babd 0aa7 efbd f4ed b9bd
00000130: f64e cebe 863e 85be 4440 4fbe ea99 8abe
00000140: fdf4 bd3e 30b1 d23e 3a59 8e3e 0a82 0c3e
00000150: b783 3e3e ccef 643e ad8e 613d 0a62 aebd
00000160: 9206 853d effa f03c ea64 b339 67cc 1fbc
00000170: c1fb 1cbe af14 fdbd 4217 64be 42bf abbe
00000180: 9f2d 71be c83d 94be 5c04 cdbe 933e e3be
00000190: 2cd5 c3be 8184 bdbe 3c26 66be 07a6 24be
000001a0: 6efa 29be 42d3 93bc 96af e6bc ebad 68bc
000001b0: 800f aabd 6bfe 13be 875d 88bd 765d ce3c
000001c0: 10c1 c83d 16cc 043e d31d 293e ef98 0c3e
000001d0: aafa 833d 24da 633e 9463 743e b90e 17bb
000001e0: 321d 353e 20de f63e e655 d93e 61f0 3c3e
000001f0: 2899 803e bcc7 ad3e 072b ab3e b574 a13e
00000200: 83ae 593e d147 383e 75db 883d ab6c 813c
00000210: c93d 1bbc dabe 69be ec51 c5be 5d74 babe
00000220: b393 acbe a838 d3be f095 acbe 36e7 37be
00000230: af32 e1be 5e67 c0be 15fd bdbd 9b23 1cbe
00000240: 00ca 80be a897 04be d45b dabd 9098 9cbd
00000250: 6b59 18bd 22f0 913d db6c 2f3d 22a1 44bd
00000260: cc83 403e 876d 543e cd6b 413e 2b5c b53e
00000270: c5f2 9e3e 35fe cc3e 2ac3 bf3e 9114 073f
00000280: 68ae 963d 42e9 39be 3042 2cbe 6eb6 e73d
00000290: 92dc 3f3e 7896 e8bd 340d c9bd 7455 5dbd
000002a0: 7785 9b3d 49ab 7f3e cfbf 0dbd 07c4 c3be
000002b0: a5b3 70be e6f6 953e 6670 a43e fb3b 833e
000002c0: 42d5 ffbd 4e76 33bf 69f3 6dbe 4376 ae3e
000002d0: c50c 073f e3d2 bd3e adde 8bbe dd68 20bf
000002e0: 594e f4bd afd7 8c3e da40 0e3f 45b7 2e3e
000002f0: 5b31 ddbe dce6 b4be 6200 2cbd 7393 073f
00000300: b67d 953e 9fbf 80be ab9f d8be b53a 06bf
00000310: aa85 0b3e d0e6 153f 3e62 f13e 10de 803e
00000320: c286 b3be 9747 1cbf 45a6 2abf c285 6f3e
00000330: 9a01 643f c14e 1f3f 31e4 ae3c 4675 40bf
00000340: 9b85 5ebf 8ccc 91be 51cd f23e 0ac0 4d3f
00000350: 9b3f 9a3e a6f7 983e 2711 9dbe b24f 3abf
00000360: d775 dabe 6dad 99be 457a 213f c640 4b3f
00000370: 6723 163f 0bbf 61bd 2ae6 8ebf 0e47 90bf
00000380: fa69 0d3d 9d8f 8e3f cfdf 853f b06c cd3c
00000390: 8534 14bf c5e8 81bf ce17 50be 3420 bb3e
000003a0: 59a5 2b3f 9bad 1c3f 7291 82be ca17 dcbe
000003b0: 1523 f4be 88d3 5fbe 0a7e cd3e 23ed 453e
000003c0: 1ce6 b83d 8214 3c3d 9bbc f73c cfb0 38be
000003d0: b595 89be 642a 6abe e4ae 85be 0e01 9fbe
000003e0: 68ee cabe 47ac bebe 4eff 97be 1b0e 4ebe
000003f0: 4338 5fbe 9f68 11be a80c babd 6fd4 85bb
-0.22099687 -0.100649245 -0.28047493 -0.44541967 -0.34005028 -0.39677513 -0.494375 -0.39065316
-0.27343944 -0.33942208 -0.33437374 -0.097193144 -0.1193765 -0.11601356 0.010146297 0.18534002
0.20138745 0.2701349 0.30553165 0.23669909 0.23483479 0.3392077 0.2702126 0.123849705
0.1577606 0.23095398 0.27648538 0.28035456 0.25872025 0.31877455 0.32385546 0.2628759
0.20839903 0.16321877 -0.05340937 -0.22771484 -0.41357672 -0.4037344 -0.39560065 -0.4965108
-0.60403806 -0.402937 -0.24052906 -0.35714665 -0.32097933 -0.21656947 -0.09777826 -0.02051813
0.05380472 0.082016 0.05251899 0.10509301 0.1033713 -0.008876262 0.122040145 -0.003333113
0.092674 0.3432002 0.23890771 0.28799462 0.32510877 0.33353966 0.25572383 0.29523367
0.1733016 0.099316806 0.101277284 0.06556769 -0.0075944723 0.017988037 0.026252827 -0.18582277
0.0005965635 -0.09099639 -0.11701782 -0.09078589 -0.40294617 -0.26024264 -0.20239359 -0.27070552
0.37100974 0.41150808 0.2780245 0.13721481 0.18604933 0.223571 0.055067707 -0.08514793
0.06495394 0.02941653 0.00034216727 -0.009753323 -0.15330411 -0.12357461 -0.22274497 -0.33544356
-0.2355256 -0.28953385 -0.40042388 -0.44383678 -0.38248575 -0.37015155 -0.22475523 -0.1607896
-0.16599438 -0.018045072 -0.028159898 -0.0142016215 -0.08303738 -0.14452522 -0.06658464 0.02519105
0.09802449 0.12968478 0.16515283 0.13730215 0.06444295 0.22251183 0.23866111 -0.0023049547
0.17686918 0.48216343 0.42448348 0.18451072 0.2511685 0.33941448 0.33431265 0.31534353
0.21257977 0.17996146 0.06682483 0.015798887 -0.00947518 -0.2282671 -0.38539064 -0.36416903
-0.33706436 -0.41254163 -0.33708143 -0.17959294 -0.4398398 -0.37578863 -0.09276787 -0.15247957
-0.25154114 -0.12948477 -0.10662046 -0.076462865 -0.03719465 0.0712588 0.042828422 -0.04800523
0.18800277 0.20744906 0.18888779 0.3542188 0.31044593 0.40037695 0.37453586 0.52765757
0.07357484 -0.18155387 -0.16822124 0.113140926 0.18736485 -0.11356825 -0.098169714 -0.054036573
0.07593816 0.24967684 -0.03460675 -0.38235494 -0.23506029 0.2928993 0.32117003 0.256317
-0.124918476 -0.70102394 -0.23237385 0.34074602 0.5275386 0.37074956 -0.27318326 -0.6266001
-0.11929006 0.27508304 0.55567706 0.170621 -0.43201718 -0.35332382 -0.041992553 0.52959365
0.29197472 -0.25146195 -0.42309317 -0.5243333 0.13625208 0.58555317 0.47145265 0.2516942
-0.3506375 -0.6104674 -0.6665996 0.23390868 0.89064944 0.62229544 0.021349045 -0.75178945
-0.86922616 -0.2847637 0.4742227 0.80371153 0.30126652 0.2987644 -0.3067715 -0.72777855
-0.4266803 -0.30015126 0.63077193 0.7939571 0.5864777 -0.055113833 -1.116399 -1.1271684
0.034524895 1.1137577 1.0458926 0.02507624 -0.5789264 -1.0149161 -0.20321581 0.36548007
0.67049176 0.612024 -0.2550159 -0.429869 -0.47683015 -0.21858037 0.40135223 0.19328742
0.09028265 0.045917995 0.030241301 -0.18036197 -0.2687203 -0.22867733 -0.26109993 -0.31055492
-0.39635015 -0.37240812 -0.2968697 -0.20122568 -0.21798806 -0.14200066 -0.09084445 -0.004084162

bias f4 [32]
00000000: 980e 9839 8a7e 03b9 0633 703a 54cb b3ba
00000010: 9eed 2a3a e4b3 16ba c386 953a fc0e 16bc
00000020: edde a139 2161 433a 4eea 6437 a1ed 063b
00000030: a511 bbba 2efc acb8 1090 1d3a ded0 a6b9
00000040: c704 89b9 44d9 8a3b 0987 0038 948d f837
00000050: 539b 8eb9 8afe 34ba ffaf 54ba 5152 c738
00000060: 9d55 dbb9 5504 3d39 21ae 2a3a a2a3 10ba
00000070: 1697 a9b8 7641 8c39 ed8f 0f3b 1e0c 03ba
0.00029002572 -0.00012540273 0.00091628765 -0.0013717213 0.0006520393 -0.00057488517 0.001140796 -0.009158846
0.00030874406 0.0007453133 1.3644412e-05 0.0020588415 -0.0014272226 -8.248571e-05 0.00060105417 -0.00031817605
-0.00026134236 0.004237326 3.064334e-05 2.9629831e-05 -0.00027200076 -0.00069043844 -0.00081133837 9.504392e-05
-0.00041834722 0.00018026058 0.00065109326 -0.0005517547 -8.08669e-05 0.00026751653 0.0021905855 -0.0004999059

weight f4 [32]
00000000: 106f 193f 88aa 133f 9c69 8b3f e67a e63e
00000010: 31f7 d73f 4cdd fe3e 98fb 973f 5965 b53f
00000020: 66bd 3d3f 2c87 123f 7591 633e d81d 2a3f
00000030: 6d18 b83f 858f 123f 98d2 553f bf50 c93e
00000040: f078 833e bb0e 8d3f 44f1 f43e c1d6 3a3f
00000050: a71c c03e c702 c53f 9aba 563f 1767 e33e
00000060: 1656 ec3e 22e1 953f 09de 1d3f 34c3 f43f
00000070: 7957 e53e 16ae 123f f5a4 6f3f 3950 263f
0.5993509 0.57682085 1.0891604 0.4501564 1.6872312 0.4977821 1.1873655 1.4171554
0.74117124 0.57237506 0.22223456 0.6645179 1.4382454 0.57250243 0.83524466 0.39319417
0.25678205 1.102012 0.4784032 0.7298394 0.3752186 1.5391473 0.8387848 0.4441459
0.46159428 1.170933 0.61666924 1.9122071 0.447933 0.57296884 0.9361108 0.6496616

bias f4 [32]
00000000: 79ad 953e 4f62 893e ac3e 5e3d 2f5a 9c3e
00000010: a277 46bb 0de3 213e 40a0 c63c 4986 253d
00000020: 66e7 413e a36c 2b3e 457f 97be 754c 2a3e
00000030: 0687 c0bb 9eee 67bc d965 693e 5508 5f3e
00000040: 2cf5 353e 4aeb 1d3e 499b 943e 3ade b73e
00000050: 11fe a53d a0ea eebc 834b 013f c7b2 7f3e
00000060: ff5d 123c 05da e13d 67e4 d43e c317 ad3c
00000070: c041 60be 62bb 973d 839f 013f 182e 973e
0.29233912 0.26832816 0.054258987 0.30537555 -0.003028371 0.15809269 0.024246335 0.040411267
0.18935928 0.1674066 -0.29589286 0.16630729 -0.005875471 -0.014156012 0.22792758 0.21780522
0.17769307 0.15421787 0.29024723 0.35911733 0.081051 -0.029164612 0.50505847 0.24970542
0.008933543 0.11027912 0.41580507 0.021129495 -0.21900082 0.07408787 0.5063402 0.29527354

running_mean f4 [32]
00000000: 903e 9ab7 3b0c a3b7 aef2 6639 b424 c638
00000010: 02dc 3339 69a5 8039 c6ec 91b9 a4a7 803b
00000020: 34d1 0c39 14c6 04b9 eb33 40b8 a0f0 f7b9
00000030: e7b0 ae39 6866 2438 f9c0 d2b7 98b4 f537
00000040: e366 12b9 3497 013b 433f dcb8 4ee1 0a39
00000050: f25f 9537 0a3f 02b8 f2b8 6e39 76ba 9fb8
00000060: 2df7 b138 32f4 31b9 8b2a 4839 8a3d d439
00000070: a929 a5b6 ba67 aab8 5ffa d9b6 5c7f d1b8
-1.8387364e-05 -1.943681e-05 0.00022024915 9.448212e-05 0.0001715273 0.00024537303 -0.00027832965 0.0039262343
0.00013429375 -0.00012662291 -4.582472e-05 -0.0004729079 0.0003331967 3.919602e-05 -2.512381e-05 2.9290371e-05
-0.00013961973 0.0019773962 -0.00010502201 0.00013244638 1.7806862e-05 -3.1053125e-05 0.00022766346 -7.616442e-05
8.486058e-05 -0.00016971005 0.00019089335 0.0004048164 -4.922233e-06 -8.125552e-05 -6.496251e-06 -9.989619e-05

running_var f4 [32]
00000000: a46d 9e3e 317a 883e bf6c e53c 9fd4 453e
00000010: de3d 5e3e 937a 5b3e b8b7 ad3e 823a e03c
00000020: 365b 903e d51c 733e c6bb 193d f417 3a3c
00000030: 6048 863e eb90 653e cbbc b33e 95bb 423e
00000040: 559a a93d 77e4 2c3c 91b7 503e cfd8 b33e
00000050: 3feb 013e 083b 543e c422 b43e 5ace 3d3e
00000060: 1f6b 1b3e 113e e73e 0a8f 6c3e 986d a63d
00000070: 2db6 433e b214 4b3e b297 e63e ad68 8b3e
0.30943024 0.26655725 0.028005956 0.1931939 0.21703288 0.21433477 0.3392923 0.027371649
0.28194588 0.23741467 0.03753259 0.01135825 0.26227093 0.22418563 0.35104975 0.1901687
0.082813896 0.010552517 0.20382525 0.3512635 0.12687396 0.20725644 0.35182774 0.18535748
0.15177582 0.4516454 0.2310144 0.08126372 0.19112463 0.19832113 0.4503761 0.272283

weight f4 [32, 32, 3]
00000000: 62bc 0bbe ae1d 0ebd 458e d4be 10cd 09bf
00000010: 0d22 64be 4433 0cbf 816c 61be 0f24 9c3e
00000020: 8e31 253e 8865 93be 23e2 3dbd 9d50 3dbe
00000030: 8fea 593e 24d0 013e f10c 343d bebc 40bf
00000040: 7efb 70bf 9978 10bf 1555 94bd 2402 b63e
00000050: e302 063e 5b1b 2f3e a0cd a03c 21f2 5b3e
00000060: 9f46 a03e d5f8 843e b99e 5e3e faee 32bf
00000070: da62 31bf 0c62 37bf e933 f7bd c7d9 13be
00000080: 9a48 9dbd 1a6f a0bd 7b3b 85bd 0af6 52bd
00000090: 2262 9abd bde9 213c 732a 173e 5ce2 17bd
000000a0: 9ce1 4a3e 70c7 253e 3661 323e 1624 c33e
000000b0: 2945 d93d 8b2f 9c3c 6676 02bc c430 103f
000000c0: 2f4b 30be e886 99bd 6a29 583e 1893 b7bd
000000d0: 3f71 053d 8869 ab3c 968e 20bf 9613 07bf
000000e0: e6f3 24bf c452 f63d 1aff 33bc 596a c63e
000000f0: abca a0bd 8e19 39be e7af acbd f5a9 953e
00000100: 833a 9fbc 37a0 c7ba b92d bdbd 7f70 bebe
00000110: 2bdf 493e 9a91 ecbe bb83 a0be 7b59 57be
00000120: a7e9 083e 3e89 9a3e caf0 203e f4a5 21be
00000130: d78f c63e 7cb6 d73e d3b0 23bf 1703 63bf
00000140: 6795 e1be b117 f2bd 91fa f3bc 8e4d 433d
00000150: d095 12be 5c00 743d c538 253e 159c 063f
00000160: 875e e5be 0858 b4be 547c 4cbe b888 af3c
00000170: 2335 873e 0d0f 47bf a263 53bf 9237 33bf
00000180: 4b07 793d a06f 27bf a227 c93e 5d0c 283e
00000190: a941 98be b6d7 d93e b3fd 4ebe 7861 15bf
000001a0: 43d1 fb3d 2712 833e aed6 0bbf d57a 833d
000001b0: 3fba e63e dc54 9fbe c7bb 4a3e e1d6 f33d
000001c0: 6c46 d2be 3995 ad3e 47f6 673d c761 1fbf
000001d0: 5df7 923e ac9b 393e f525 45bf 6046 073f
000001e0: c216 483e bd11 f8be ea0c 243e 79b6 773e
000001f0: d4b4 12bf 6aae a93e 0994 443c 9baa 45be
00000200: 85d9 69bd ab82 71be 3672 26bf 181f 4b3e
00000210: 1449 2b3d fce7 0fbf b1e3 dc3d ae37 083d
00000220: f86d 18bf 2c23 cbbb 53dc 9e3d 1258 27bf
00000230: da0f 8c3e 0889 653e ef39 bfbe fc8a 0a3d
00000240: f712 b33e a5fb 04bf 16f2 3f3e 65fc f0be
00000250: 7609 73bf 35e2 88be 55be 203e 1c50 17bf
00000260: 3ae2 fe3b ee45 253e 083d 98be 03c2 c83e
00000270: a496 a8bd 198b a9be a816 d6bb a103 a4bb
00000280: ef1d dbbe 9a67 893e 78a4 033c f3d6 89be
00000290: d21d 883e 660a f43d 4df1 06bf f6ef 7f3d
000002a0: e20f 9bbc 67c6 15be a77b 09bf cbb4 583e
000002b0: 2c3b 2abf 7ed8 f63e cd57 bf3e 6df1 f4be
000002c0: 4bd8 4f3e 2a53 a13d 16ef 88be 07b2 0a3e
000002d0: 5878 743e 8b17 7bbe 7edb 9f3d e951 b33e
000002e0: e5cc 3abe bc19 023e a59b 2e3e 27a2 82be
000002f0: 423c 18bd d520 cc3e 99c0 f2be e5aa 183e
00000300: 1109 1cbd b1f1 883e 2bac a33d 6df3 663e
00000310: 0db5 2e3e de1c b43b 58d9 e7be f4d8 d8be
00000320: 4183 08bf aa3c 393e a287 c73d 59b1 283b
00000330: 74f3 52bf ac43 81bf ed9e 89bf 04c7 943e
00000340: c2e1 953e b993 fd3c 3d5a 5dbe 314d 873e
00000350: c490 043f 2d95 f4be 2076 0abf d3a4 f6be
00000360: 97e9 6cbe b166 c83d 6c26 04be e5f7 c93d
00000370: bfbc e1bd ceb1 cdbd 018e 833d 4fd0 a23d
00000380: edb9 0cbd 7de1 a43d 6a9b 20be 3b61 c6bc
00000390: 3d4d eebe a299 06be 5ee3 4b3e bd9c 72be
000003a0: 90fa 5b3e 4e85 13be b8a6 aa3d 46b3 5bbe
000003b0: 84f5 20be 4e0b 883c caf8 babd 81c0 12be
000003c0: 5111 053e df72 e43d 2a8f debd 0561 e7bd
000003d0: 62c7 5fbe d008 943d 8976 973e 4261 6c3e
000003e0: c367 69bd 0295 a1be 7d54 0a3d a019 97be
000003f0: 1850 b5bd d66f 8bbd c900 f93d d6ff cabe
-0.13646081 -0.034696274 -0.41514793 -0.53828526 -0.22278614 -0.54765725 -0.22014047 0.3049626
0.16132185 -0.287884 -0.04635824 -0.18487783 0.21280883 0.12677056 0.043957654 -0.75288
-0.94133747 -0.5643402 -0.072427906 0.35548508 0.13087039 0.17100279 0.0196293 0.21479084
0.3130388 0.25971094 0.21740235 -0.698959 -0.6929146 -0.7163398 -0.12070448 -0.14438544
-0.07679863 -0.07833691 -0.065054856 -0.051504172 -0.075382486 0.009882388 0.14762287 -0.037081107
0.19812626 0.1618936 0.17419896 0.3811347 0.106088944 0.019065639 -0.007962799 0.5632441
-0.1721618 -0.074964345 0.21109548 -0.08963603 0.032578703 0.020924345 -0.6271757 -0.5276426
-0.6443466 0.12027505 -0.010986114 0.38753012 -0.07851156 -0.18076155 -0.08431988 0.2923123
-0.01943708 -0.0015230243 -0.092372365 -0.37195203 0.19714038 -0.46204835 -0.31350502 -0.21030228
0.13370381 0.30182832 0.15716854 -0.15785962 0.38781616 0.42131412 -0.6394169 -0.8867659
-0.44059297 -0.11820925 -0.029782565 0.047681384 -0.14314961 0.059570655 0.16134937 0.5258191
-0.4479868 -0.35223413 -0.19969302 0.021427497 0.26407728 -0.7775734 -0.825739 -0.7000667
0.06079797 -0.654047 0.3928805 0.16410966 -0.29737595 0.42547387 -0.20213966 -0.5835185
0.12295773 0.25599787 -0.5462445 0.06419913 0.4506397 -0.3111943 0.19798194 0.11906219
-0.41069353 0.3390291 0.056631353 -0.6225857 0.28704348 0.1812579 -0.7701104 0.5284176
0.19539931 -0.48451033 0.16020551 0.24190702 -0.5730717 0.3314088 0.011998185 -0.19303362
-0.05709221 -0.23585002 -0.6501802 0.1983608 0.04181774 -0.56213355 0.10785616 0.033256225
-0.595428 -0.006199261 0.07756867 -0.6536876 0.27355844 0.22415555 -0.37348887 0.033823952
0.34975407 -0.5194648 0.18744692 -0.47067562 -0.9493631 -0.26735082 0.15697606 -0.5910661
0.007778433 0.16139957 -0.29734063 0.3921052 -0.082318574 -0.33113936 -0.0065334626 -0.0050053154
-0.42796275 0.26836854 0.008034818 -0.26921806 0.2658525 0.11916046 -0.52711946 0.062484704
-0.018928472 -0.14626466 -0.53704304 0.21162717 -0.6649654 0.48212045 0.37371674 -0.47840443
0.20297353 0.078771904 -0.26744908 0.13544475 0.23874032 -0.245207 0.07805537 0.3502343
-0.18242224 0.1270513 0.17051561 -0.25514337 -0.03716684 0.398688 -0.47412565 0.14908941
-0.038094584 0.26746896 0.07991823 0.22553797 0.17061253 0.0054966053 -0.45283008 -0.42353022
-0.5332528 0.18089548 0.09742667 0.0025740473 -0.8240273 -1.0098777 -1.0751625 0.29058087
0.29273802 0.030954229 -0.21616454 0.2642608 0.51783395 -0.47770062 -0.54086494 -0.48172626
-0.23135982 0.09785212 -0.12905282 0.09861735 -0.110223286 -0.10043679 0.064235695 0.07949888
-0.034357 0.08050821 -0.15684286 -0.024216285 -0.46543303 -0.13144544 0.19910952 -0.23692603
0.21482301 -0.1440632 0.0833258 -0.21455106 -0.15718657 0.016606953 -0.09129484 -0.14331247
0.12994887 0.111547224 -0.1086715 -0.11297802 -0.21853402 0.07228243 0.29582623 0.23083976
-0.05698372 -0.31558996 0.03377198 -0.29511738 -0.08853167 -0.068084404 0.12158353 -0.39648312

bias f4 [32]
00000000: ae12 4038 879c 51b9 c83e e0b8 d7b2 6eb8
00000010: d158 7138 edef a5b6 b831 d3b8 db8b 0b35
00000020: f837 61b9 beb5 f838 cddb cf37 9c49 0339
00000030: 7eb9 c137 aced 76b7 d0fe 31b8 1ba1 9db8
00000040: ee18 e238 f4f8 5fb8 c1ed 11b8 d367 a937
00000050: ae7c 7cb8 2de0 c039 da06 3d39 8ae0 a536
00000060: e4c6 dcb7 afc9 34b8 8df6 4b37 406c 33ba
00000070: 5f38 07b8 79db 2438 d7d0 a538 01f0 0238
4.5793764e-05 -0.00019990104 -0.00010692846 -5.691018e-05 5.7541594e-05 -4.9453142e-06 -0.00010070525 5.198505e-07
-0.00021478522 0.00011859414 2.4778676e-05 0.00012520555 2.309377e-05 -1.471808e-05 -4.24374e-05 -7.5163516e-05
0.00010781163 -5.33992e-05 -3.479212e-05 2.0194717e-05 -6.01976e-05 0.00036788118 0.00018026997 4.943523e-06
-2.631866e-05 -4.3103177e-05 1.21571475e-05 -0.00068444386 -3.2239008e-05 3.9305047e-05 7.9067126e-05 3.1217936e-05

weight f4 [32]
00000000: c14c 073f b82a ec3e f3f5 1540 9ecd 813f
00000010: 81da 103f ce9b 813e e310 0e3e 9667 973e
00000020: f06d a43e c83d 373f e690 c63e 7337 953f
00000030: d575 953f 40b3 bf3f 308b 4c3f 745e c23e
00000040: 6c6b d63f ea94 323f c8e7 cf3e f0c9 d63e
00000050: 29c2 8d3e 80f3 3040 8d95 dd3f d862 f83e
00000060: 9807 7c3f 9463 bf3f 821f cc3f 3df5 f03f
00000070: 067e bd3c dd0f cd3e efb0 643e 648e c53f
0.5285149 0.46126342 2.3431365 1.0140874 0.5658341 0.25314182 0.1387363 0.29571217
0.32115126 0.71578646 0.38782424 1.1657547 1.1676584 1.4976578 0.79899883 0.37962687
1.6751533 0.69758475 0.40606523 0.4195094 0.27687195 2.764862 1.7311264 0.48512912
0.9844909 1.4952264 1.5947115 1.8824841 0.023131382 0.40051165 0.2233312 1.5434079

bias f4 [32]
00000000: 6f45 8a3e 0b6f d43d 3d84 cebe 4a4a e9bd
00000010: ac42 4e3e 542f 8f3e eb83 353e 14f5 5abf
00000020: b714 3c3e d91d 8b3f c685 483e c6cb 4a3e
00000030: 86b5 8bbd 1e2c a4be 355f 2b3f ad27 fe3d
00000040: 25e3 edbe 34f4 23be bc5d da3e 3f10 ea3d
00000050: 153c 023f f0f8 13bf a01b 39bf 4d84 113e
00000060: ca32 e43c f403 8dbe 9ebc 94be 79ec 1ebf
00000070: 5093 d0be d3ea 893e 0267 a33e aae2 5fbe
0.270061 0.10372742 -0.40335265 -0.11391123 0.20142621 0.27965796 0.17726104 -0.8553021
0.18367277 1.0868484 0.1958228 0.19804296 -0.06821732 -0.3206491 0.6694215 0.12409911
-0.4646236 -0.16011125 0.4264964 0.1142888 0.5087293 -0.57801723 -0.7230778 0.14210625
0.02785625 -0.27542078 -0.29050153 -0.6207958 -0.4073739 0.2693697 0.31914526 -0.21863809

running_mean f4 [32]
00000000: f7ca 90c0 941d 23c0 eff7 a1c0 7113 b9c0
00000010: ca6e 9ebf 1ea7 0c40 7a7e bc40 fb37 9f40
00000020: 95b5 f43e e7bc 11c1 8e00 2dc0 cda7 f4bf
00000030: 48cc 48c0 0e05 25c0 e781 90c0 cea9 2640
00000040: ce87 c7c0 a3b8 91c0 04f9 bdbe 0184 91bf
00000050: 3494 6cbf fd5d c8c0 8ad6 a9c0 07a2 3cbf
00000060: 767f 9cbf c4db ffc0 cb05 f2c0 f269 ebc0
00000070: b385 c43f 7871 a63f 7ad7 b340 e7be 4bc0
-4.524776 -2.5486803 -5.0615153 -5.783623 -1.237756 2.1977 5.890439 4.9755836
0.47794786 -9.108619 -2.7031589 -1.9113709 -3.1374683 -2.5784335 -4.515857 2.604114
-6.2353277 -4.5537887 -0.37104046 -1.1368409 -0.9241364 -6.261473 -5.307439 -0.73684734
-1.2226398 -7.995577 -7.563207 -7.356683 1.5353302 1.3003378 5.6200533 -3.1835268

running_var f4 [32]
00000000: ab2f 0942 4822 bf41 dd45 7643 bbac 2242
00000010: cb8b 3a42 1fe4 3242 1e86 2f42 a3ae 3e42
00000020: 257b 0241 1b9c d542 5d1b a841 3db2 ae42
00000030: a528 ad42 7d1c 0543 d2a9 e842 a730 e441
00000040: 0ef6 9b42 d689 0142 2638 b341 ad80 1842
00000050: ed75 bd41 5554 6a43 0bb4 4f42 ba7c 0e42
00000060: 4536 c142 a255 b442 667c aa42 6c09 8142
00000070: f888 9040 fd08 5c42 5232 6742 97ce eb42
34.29655 23.891739 246.2729 40.668682 46.636517 44.722775 43.880974 47.670544
8.155065 106.80489 21.013361 87.34812 86.579384 133.11128 116.33168 28.523756
77.980576 32.384605 22.402416 38.12566 23.68258 234.32942 51.925823 35.621803
96.605995 90.16725 85.242966 64.5184 4.51672 55.008778 57.79914 117.903496

weight f4 [64, 32, 3]
00000000: 186c 94bd d078 863e 7df3 993d 45d2 29bf
00000010: 8309 29bf 01e4 e4be 15d3 d63d bb23 ee3d
00000020: f946 a2bd 09a8 71be 6e44 593b c0f4 00be
00000030: ba44 c0bd c076 e83d a412 9fbd d0ea 343e
00000040: 5904 843e d775 b03d 19ea b8bb d93b 25bc
00000050: b1bb f33d ae53 ae3b 36d9 0abd 6487 873d
00000060: a279 c0be 8915 b5be a083 05bf 6939 c73e
00000070: cb21 dc3e ed96 9e3e d066 67be 370e ccbd
00000080: 7f46 9bbe 6f39 bf3e 5dcb 7b3e a34a d43e
00000090: 109b 293e 69b6 eb3c 5481 ae3c bc0a 20be
000000a0: 9db8 05bd 700a 733e 9bb1 633d 605e 1ebe
000000b0: 0dc4 fcbd b668 febe be74 10bf 5444 d3bc
000000c0: 59c3 71be f3b7 83be 7498 1cbe 3f2c 3fbe
000000d0: dfee 33be b84a cf3c e962 293e b038 2d3e
000000e0: f5ac ed3d c0d4 aebe 67aa b1be d53b d33d
000000f0: 5395 58be 05b0 b13d 3e2d e23d 5f7f 793e
00000100: 8c65 433e 85bb 2a3e 9805 a03c b4cd 333d
00000110: 1e50 2c3e 394d ffbe ac48 10bf 664b eebe
00000120: 0a77 b53d 3273 da3c 073e ffbb 0af4 423e
00000130: 68b8 e63e 5885 b13e 8e3e 173e f0e8 253e
00000140: f03e ed3d 2781 02be 2083 efbc 6c49 d53d
00000150: 4fa7 54bd 3fc4 8abd 67f9 663d 71ad 1bbf
00000160: 5304 a9be 1aeb 4fbe 88fa b4bd a23d 2cbe
00000170: 1470 2d3e 3daa 9fbe ce09 82be 196a 82bc
00000180: 0a1a b5be 623d 7cbe 4f37 0abe 68cd 963e
00000190: 8e29 d03e db46 ecbd 1b71 593e 4c2b 433d
000001a0: b26e 2bbe cf7d 20be 6d8b 6ebe b01f 90be
000001b0: 3b92 68be 600f cfbd f8eb cebe cf75 37be
000001c0: e06f 78be d79d 84be c70c aebd dea8 4cbd
000001d0: d0f6 22be fb28 263e 0d18 193e 14b0 e23d
000001e0: 3568 f0bd 2aa9 ee3c 45af 27bc 83fe 603e
000001f0: 3883 ef3e 7696 dd3e a912 48be 00ae 38be
00000200: b725 29be 1618 0e3d 651f 063e 662c 2b3e
00000210: 83b5 b03d 8f12 b73e 9148 47be f3b9 b23e
00000220: 6dfe c13d 7f48 08be 1f07 5a3e daf7 ef3e
00000230: 5c4c 203e 0265 53be 4013 56be eb0a 97be
00000240: d7ba 4b3e a47b 493d fd31 443e 8841 1dbe
00000250: e154 ea3d e9f3 aebd 7081 9d3d 3708 3e3e
00000260: a7bf 96be e078 d63d 380d afbe 7a4d 10be
00000270: 63bd e4bd 0d7c 8cbe 7c12 86be 633a 49be
00000280: e091 e8be c3ab 05bf 64b4 de3c 08ee fcbd
00000290: f9cb cfbd d431 82bd ba77 6f3e 8b77 6c3d
000002a0: f743 f4be bb55 02bf 939f 35bf e7ec f7be
000002b0: 928b 05bf bf52 a4be fe98 13be d0aa 8fbe
000002c0: 9c4e b3bd eec9 0cbe 8f49 c0be d775 95be
000002d0: 379e bebd 30d7 c3bd 6a50 c4bd f5c1 3cbe
000002e0: 11d8 a2bd 71c4 0dbe df7e 2cbe 3173 68be
000002f0: c0b3 7bbe 66dd f53e 53ca 253f a6af 493f
00000300: 808a b6be fc00 9fbd e827 9d3e ebe9 8ebd
00000310: f5ec d43b 293d 0abe 9e1b 683f 265c 453e
00000320: 0da6 66bf fa1a bb3d bed2 87be fb80 043e
00000330: 214c 143f 497f b93e cd57 c1be b499 2abf
00000340: 17c1 a6be d1a3 a63e 57d7 fd3c a31b 863d
00000350: f5b0 26be 3f77 ef3d 0c5c 483e a2d6 8cbd
00000360: 37c9 93be 469a 853e ac07 3e3e 12ed 863d
00000370: 5446 9d3d bbb0 f03d 75a0 18bf 4cef 963d
00000380: 932f 6d3d 626b e4bd a304 1bbd 7702 03bf
00000390: 066c 81be fa29 bc3e e2c7 533f fe5b 1e3f
000003a0: 9987 553e e65d e73c 5c84 983d d12c 8c3e
000003b0: fa78 0b3e 3b61 02bd b5d2 4c3e 8f74 acbd
000003c0: 751e 713e 9210 0e3e bc5f dabd 19cc 69be
000003d0: 9108 f6bc f75a 8ebe 7691 49be 085e ab3e
000003e0: ac9c ac3e c710 b73b 49ae 60bf dd37 aabf
000003f0: 9955 3b3e e702 db3e 9f9c 00be 77e1 e83d
-0.0724718 0.26264048 0.07517145 -0.6633647 -0.6603014 -0.44705203 0.104894795 0.11627909
-0.07923693 -0.23599257 0.003315236 -0.12593365 -0.093881086 0.11350775 -0.07767227 0.17667699
0.25784567 0.08616226 -0.005643141 -0.01008507 0.11901034 0.005320034 -0.033898555 0.066176206
-0.37592798 -0.35367993 -0.5215397 0.38910988 0.42994532 0.30974522 -0.22597814 -0.09963649
-0.30327222 0.37348506 0.24589296 0.41463193 0.16563058 0.028773503 0.021301903 -0.15629095
-0.032646764 0.2373445 0.0555893 -0.15465689 -0.12342081 -0.49689263 -0.56428134 -0.025789417
-0.23609675 -0.2572628 -0.15292531 -0.18669222 -0.17571591 0.025304183 0.16541637 0.16916156
0.116052546 -0.3414669 -0.3470032 0.103141464 -0.21150713 0.08676151 0.110437855 0.24364994
0.19081706 0.16673096 0.019533917 0.043897346 0.16827437 -0.49863604 -0.5636089 -0.465419
0.088605955 0.026666258 -0.0077893767 0.19038406 0.45062566 0.34672046 0.14769956 0.1620214
0.1158427 -0.1274458 -0.02923733 0.10414395 -0.05191737 -0.06775712 0.056390192 -0.60811526
-0.33011112 -0.20304528 -0.088368475 -0.16820386 0.16937286 -0.3118457 -0.25398105 -0.015919732
-0.3537143 -0.2463279 -0.13497661 0.29453588 0.40656704 -0.11536952 0.21234553 0.047648713
-0.16741446 -0.15672992 -0.23295374 -0.28149176 -0.22712032 -0.101103544 -0.40414405 -0.17916034
-0.24261427 -0.25901672 -0.08498531 -0.04996573 -0.15914464 0.1622657 0.14950581 0.110687405
-0.11738626 0.029133398 -0.010234659 0.21972089 0.467798 0.43278855 -0.19538368 -0.18035126
-0.16518293 0.03469094 0.13097914 0.16716155 0.086283706 0.35756347 -0.19461276 0.34907493
0.09472356 -0.13308905 0.21291779 0.46868783 0.15654129 -0.20644 -0.20905781 -0.29500517
0.19895492 0.04919018 0.19159694 -0.1535703 0.114419706 -0.08542616 0.07690704 0.18557821
-0.29443094 0.10472274 -0.34189773 -0.14092055 -0.11168935 -0.27438393 -0.26185977 -0.19651179
-0.45423794 -0.5221521 0.027185626 -0.12350088 -0.101463266 -0.0635716 0.23385516 0.057731193
-0.47708103 -0.50912064 -0.70946616 -0.4842293 -0.5216609 -0.3209438 -0.1441383 -0.28060007
-0.08755228 -0.13748905 -0.3755612 -0.29191467 -0.09307521 -0.09562528 -0.0958565 -0.18433364
-0.07951368 -0.13844468 -0.16845272 -0.22700192 -0.24580288 0.48020476 0.6476185 0.78783643
-0.35652542 -0.0776386 0.3069451 -0.0697821 0.006497974 -0.13499893 0.9066714 0.19273433
-0.90097123 0.09136005 -0.2652797 0.12939827 0.57928663 0.36229923 -0.377623 -0.6664078
-0.3256919 0.32546857 0.030986471 0.0654824 -0.16278441 0.11692666 0.19566363 -0.068768755
-0.28864452 0.26094264 0.18557614 0.06588186 0.0767943 0.11752459 -0.5961984 0.07369861
0.0579067 -0.11153294 -0.03784622 -0.51175636 -0.25277728 0.36750776 0.8272687 0.6185912
0.20852508 0.028243016 0.074471205 0.27377942 0.13620368 -0.031831007 0.20002253 -0.08420669
0.23546775 0.13873509 -0.10662791 -0.22831763 -0.030033382 -0.27803776 -0.19684395 0.33470178
0.3371328 0.005586717 -0.8776594 -1.3298298 0.18294372 0.42775652 -0.12559746 0.11371129

bias f4 [64]
00000000: 5f3c 3738 7c8b 83b8 b1e1 8ab8 7e7a b2b8
00000010: 77b8 4a39 af06 0938 f252 a239 a480 19b8
00000020: 89df 3f38 2abb bdb8 6e7e a5b8 21ae cd38
00000030: 5940 a538 8556 84b8 8ff4 b338 b91c ae39
00000040: c7a8 b838 7bf9 d0b8 6642 2339 bb42 f437
00000050: ee0e 02b8 7807 9837 145a a5b8 5bdd 8fb8
00000060: df90 4bb9 e181 193a 10ad fb37 aca4 0c39
00000070: 13dc b1b8 799f c138 9f0a 1739 ffa5 8eb7
00000080: 42a2 00b9 5632 08b0 ffa9 99b8 9668 4138
00000090: a8e2 88b8 5a3c 05b9 224a 4838 fdd9 3a38
000000a0: 0354 01b9 12b5 4635 b427 52b6 c90a bf38
000000b0: 6997 9b37 2b6a 31b8 10cb b2b6 ab70 6638
000000c0: 7fd4 6437 47fb 19b9 5fab 86b5 a3cd 92b6
000000d0: 281f a6b8 495f ffb7 2a4f 6837 f38f 8ab7
000000e0: 6552 18b7 8194 4438 0330 c9b9 60a7 04b8
000000f0: 3f14 1039 fbfa b2b7 1d19 9038 cf2d adb8
4.3686825e-05 -6.272548e-05 -6.622391e-05 -8.5105174e-05 0.0001933294 3.266957e-05 0.00030960847 -3.659785e-05
4.5746132e-05 -9.047084e-05 -7.8913625e-05 9.807596e-05 7.879799e-05 -6.310366e-05 8.580938e-05 0.00033209266
8.805241e-05 -9.964682e-05 0.00015569627 2.911814e-05 -3.100832e-05 1.812329e-05 -7.8845915e-05 -6.860002e-05
-0.00019413557 0.000585584 3.000212e-05 0.00013412785 -8.48101e-05 9.232661e-05 0.00014404439 -1.7005017e-05
-0.00012267477 -4.9548043e-10 -7.327273e-05 4.611219e-05 -6.5272034e-05 -0.00012706351 4.7752757e-05 4.4548873e-05
-0.00012333695 7.402424e-07 -3.1315549e-06 9.1095986e-05 1.8547946e-05 -4.2298965e-05 -5.328453e-06 5.4941203e-05
1.3639335e-05 -0.00014684825 -1.0033654e-06 -4.3750783e-06 -7.9213e-05 -3.044274e-05 1.3846709e-05 -1.6517914e-05
-9.07909e-06 4.6868347e-05 -0.0003837348 -3.1627133e-05 0.00013740452 -2.1336125e-05 6.871133e-05 -8.257815e-05

weight f4 [64]
00000000: 6fb7 5b3f 31d1 a73f e9d5 6d3f 77b4 723f
00000010: 7db4 8e3f 3b7c 643e a4eb c03f 8f50 bb3e
00000020: 5d54 103f aa72 aa3f 26b4 a13f e963 933f
00000030: d179 293f bf64 be3f 3911 c03f 0f6e c93f
00000040: eeef 643f ad2b 183f 4812 0a3f 5d0a 273f
00000050: c2d3 523f f409 d63e 9246 8e3f edc0 983f
00000060: 7736 ab3f 3896 d63f 833a e73e b3da aa3f
00000070: 701e fa3e d068 783f f0e5 6b3f ad0b 493f
00000080: 3955 ac3e d0da 353d 12bc 773f 12f7 593f
00000090: 5f2f 473f 39b6 a23e 9f02 c53f 30e3 c63f
000000a0: 703f 733f 1674 c83f 49cb 7a3f 35a4 703f
000000b0: eb13 bc3e 2cba e13e 5f2a 933f 4047 9f3f
000000c0: 9b96 9c3f 97dd c93f c689 043f e03e 563f
000000d0: 5394 613f 099a 1e3f 0630 5a3f bfb5 ac3e
000000e0: 682a 593e d8b5 373f 27f4 a83f 3c9a 953f
000000f0: 88c5 fe3f 27de 9a3f 43b1 8a3f 5fa1 5b3f
0.8582677 1.3110715 0.92904526 0.9480662 1.1148831 0.22313015 1.5071912 0.365849
0.5637873 1.3316243 1.2633102 1.1514865 0.662015 1.4874495 1.5005256 1.5736712
0.89428604 0.59441644 0.53934145 0.6525019 0.82354367 0.4180447 1.1115286 1.1933876
1.3375996 1.6764593 0.45161828 1.3347992 0.48851347 0.9703493 0.9214773 0.7853344
0.3365877 0.04439813 0.9677135 0.85142624 0.7780666 0.3177965 1.5391425 1.5538082
0.9501867 1.5660427 0.9796644 0.9400056 0.36733946 0.4408735 1.1497306 1.2443619
1.2233461 1.5770749 0.51772726 0.8368969 0.8811695 0.6195379 0.8522953 0.3373241
0.21207583 0.71761847 1.3199509 1.1687694 1.9904032 1.2099046 1.0835346 0.8579311

bias f4 [64]
00000000: 3f9f 763e f608 04bf de76 8ebe 36ff 75be
00000010: c3fb efbe fa93 923e e969 82bf caeb 963d
00000020: fc8c ab3c 2dc2 08bf ce17 06bf 0d9a 96be
00000030: 64c7 263e aabf cebe 3ac2 62bf b4fe eabe
00000040: c0de 30be 7084 50be bfa9 d13e 7e39 44be
00000050: bc6d 04be 68cf b7bb 7ac6 02bf 7afa 00bf
00000060: 9845 f4be 83c3 3bbf b7c9 91be 4792 95be
00000070: cfff 303e 2597 b8be c926 62be 6926 8bbd
00000080: 8a8a e53d 2fc1 1ebf a15d d6be e994 23be
00000090: d1d3 81bd e158 b63d 1b01 4dbf d3c3 b2be
000000a0: dcf7 2bbe 6d51 0fbf 8a1e 87be 3b3f 3dbe
000000b0: dc95 44be b947 d23d 61c4 95be cd3b 14be
000000c0: 95b9 b7be 7603 4dbf 7bac 953e 1890 6abe
000000d0: 4faa 11be d98b 7cbe a321 0cbe 9522 3a3e
000000e0: b90b 15bf 4c16 e8bd 2138 f7be 8b1d c5bd
000000f0: 2d73 5abf 22b4 a3be e147 80be f546 bebe
0.24084185 -0.51576173 -0.27825063 -0.24023136 -0.46871766 0.28628522 -1.0188571 0.07369192
0.02094125 -0.5342129 -0.52380073 -0.29414406 0.16286999 -0.40380603 -0.88577616 -0.45897448
-0.17272472 -0.20363021 0.40949818 -0.19162557 -0.12932485 -0.0056094415 -0.510841 -0.50382197
-0.47709346 -0.733452 -0.2847421 -0.29213163 0.17285083 -0.36052814 -0.22085108 -0.067944355
0.11208065 -0.62013525 -0.41868308 -0.15974773 -0.06339229 0.08903671 -0.8007981 -0.34915027
-0.1679377 -0.5598362 -0.26390487 -0.18481152 -0.19197792 0.10267586 -0.29251388 -0.14475937
-0.35883775 -0.80083406 0.29233155 -0.2290653 -0.14225124 -0.24662723 -0.13684706 0.18177254
-0.5822101 -0.11332378 -0.4828501 -0.096247755 -0.85331994 -0.31973368 -0.2505484 -0.3716351

running_mean f4 [64]
00000000: 8e75 2e3e 229f f4be 5833 2cbf 9003 4cc0
00000010: 5aa0 723f 0d01 b0bf 5b91 fc3f bb4e bfbf
00000020: 4d57 d1bf 26ee 88bf 76a5 833f 590d 173f
00000030: 8f62 78bf 0c84 d3bf ef6e c33f 4a76 cebf
00000040: aa3c 753d fafd 14c0 338c 50c0 b502 bdbf
00000050: 7ddc 41c0 2631 4ec0 f7c1 883f 1343 54bf
00000060: c268 1cbf d96d 043f af10 f6be 1636 99c0
00000070: e8cd 39c0 4f45 1d3f de15 a8be 724f 54c0
00000080: 837d 8cbf cd7b 933d 2e2d 153f 637a 59c0
00000090: 1cff d03e 0ac1 d7bf c3c9 0240 1df2 debf
000000a0: 0010 d9bf b6e9 57bf edb4 b2bf 5e8b 9abf
000000b0: 857d 1bc0 016a 93c0 9dda 87bf fd09 61bf
000000c0: 28d9 f3bf b0cc e1bd 458b e4bf 7213 b2bf
000000d0: ec32 f7bf 2796 b83d e0ea 10c0 0c97 49c0
000000e0: 11e4 f43f 3ac0 24c0 bb2f 32bf 16f3 2fc0
000000f0: 3d3c 023c dc59 37c0 09e7 0fc0 3439 5bbf
0.17037031 -0.4777766 -0.67265844 -3.1877174 0.9477593 -1.3750321 1.9731859 -1.4945902
-1.6354767 -1.0697677 1.028487 0.5900474 -0.9702539 -1.6524673 1.5268229 -1.6129849
0.059872307 -2.3280015 -3.258557 -1.4766451 -3.0290825 -3.2217498 1.0684193 -0.8291485
-0.6109735 0.51730114 -0.48059604 -4.7878523 -2.9031925 0.6143388 -0.32829183 -3.317349
-1.0975803 0.072013475 0.58272064 -3.398095 0.40819633 -1.6855786 2.0435646 -1.7417637
-1.6958008 -0.8434099 -1.3961464 -1.2073781 -2.429536 -4.60669 -1.061359 -0.87905866
-1.9050646 -0.11025369 -1.7855002 -1.3912184 -1.9312415 0.09013014 -2.2643356 -3.1498442
1.91321 -2.5742326 -0.6960408 -2.7492118 0.007948932 -2.8648596 -2.2484763 -0.8563416

running_var f4 [64]
00000000: eb88 b040 f4a3 2e40 9e8f 2a40 295d 6440
00000010: 8ada 1f40 eceb 2a3f 25aa 0f40 c006 c23f
00000020: 84fe ea3f cc71 3340 0b8a 0240 1764 2040
00000030: bce2 a13f bb4a 0a40 40da 3d40 419d 7d40
00000040: 6937 6940 501a 983f 7be1 1040 f0ac cc3f
00000050: 1740 3540 d8ee b63f 07e5 0e40 89ed 2040
00000060: 3436 2840 d049 e23f 7b28 9b3f b491 6340
00000070: a5ae 1040 e899 2b40 ef09 5440 1a67 3540
00000080: 3fc2 8b3f 8935 d93e e849 5d40 3822 3a40
00000090: 4f6f 713f 1771 1140 d639 0e40 a185 bb40
000000a0: df8d 0640 5298 dd3f 45f9 3940 66f1 be40
000000b0: 0de4 9b3f fa14 eb3f 8d81 1a40 25cc 3540
000000c0: f2a6 5d40 479d 1040 51ed 1240 9453 1b40
000000d0: 5fcb 0940 3e36 5c3f 68f3 0c40 fde1 3e40
000000e0: 184e 463f 6c4a 1640 afa3 3a40 ded0 c440
000000f0: b65d da3f e7be 5940 cf4d f63f e571 ca3f
5.5167136 2.728757 2.6650157 3.568186 2.4977136 0.6676624 2.2447598 1.515831
1.8358922 2.8038206 2.0396755 2.506109 1.2647319 2.1608112 2.966446 3.962723
3.644007 1.188303 2.2637622 1.5990276 2.8320367 1.4291639 2.2327287 2.514498
2.6283083 1.7678776 1.2121729 3.555768 2.2606595 2.6812687 3.3131063 2.8344178
1.0918654 0.42423657 3.4576359 2.9083385 0.9431047 2.2725275 2.22228 5.860062
2.1024091 1.731211 2.9058392 5.9669676 1.217897 1.8365777 2.4141572 2.840585
3.4633145 2.2595994 2.2957346 2.4269762 2.1530378 0.86020267 2.2023563 2.9825432
0.7746291 2.3482924 2.9162405 6.1504965 1.7059848 3.4022768 1.9242495 1.5816008

weight f4 [64, 64, 3]
00000000: a401 43bf 4e2f fe3d 7ef8 113f 7f2c d13d
00000010: 5971 973e 7b46 babe a225 793b a9ff 253c
00000020: f300 92be 8832 81bd a0b9 5dbe 0564 c4bd
00000030: 9e03 9fbe 10af d0bd 08ea adbe 103f 003e
00000040: d9ae df3d 03c6 b2be 2504 5bbe bc43 93bf
00000050: fda2 48bf 8b5e a6bd 02eb 153e 7b06 fdbe
00000060: db3f 013e aa76 a03c 141d 523e 1115 483e
00000070: 1ef4 58be d2b1 74be 5999 afbd 81fa 653e
00000080: cd84 773d e927 603e c10c 303d 79c7 dbbe
00000090: 590d c0be ec98 2c3e 13de ad3d 137c debe
000000a0: f10f 3fbe 3494 463f 2dfb f03d dfab 80bd
000000b0: 73ab dcbe 691e 4b3e bf77 e0bd 8e87 f2be
000000c0: c726 edbc 49ef fe3b 034d d7be 5399 b7bc
000000d0: 0b98 fb3d 3cc2 dc3d 5edd cebd 1da3 933d
000000e0: a402 debe d676 bfbd b204 e03e 7b5f d13e
000000f0: d1ed 513b 89d6 2cbe df7a e5be d83a 60bc
00000100: 6f26 f23e b15d 2bbf b1e4 0ebd ac81 6bbe
00000110: ed20 afbe 2c83 11bf 74c3 39be 0a18 043e
00000120: a32f b5be fd2a 71bd 3675 c03e ddd7 493e
00000130: f3bf b2be 6379 febe 9d26 9c3d 328a e7bd
00000140: cdb2 80bd 89ab e7ba 31bb 27be bfeb c93e
00000150: 4e41 63bd be81 2dbe 58c7 5c3c 15de 0dbe
00000160: aa29 7b3e 59f6 cd3d 616e 093f ef28 fa3c
00000170: 8468 b4be 95a6 31be bc66 053d e273 74be
00000180: 187a 363d f206 6abe 5d35 d4bd fae2 8a3d
00000190: d6f3 14bd 94b6 22b9 adbe 1dbe 67c9 743e
000001a0: 7652 ff3d ed0b 6f39 60f7 0b3f 77f5 bdbe
000001b0: c149 2bbe 9e99 8e3e f19f 833e 9b5f 083d
000001c0: e4ae 5d3e a35e acbd 58da 49be 0b5c 34bf
000001d0: 83e7 1cbf 63bd 43be 0310 77be c181 7f3e
000001e0: 600e babe a94e 893e 9a95 f93e 755c 44be
000001f0: 4634 11be e237 2bbe de5f 023e e200 35bd
00000200: 260e b9bd 0501 e73d 38d3 82bd 95ef 2ebf
00000210: 38d3 3bbe 4505 913e 10fb a03d 5cca 43be
00000220: 61b3 76bc 6c65 583e acf8 dcbd c563 e4bd
00000230: 3500 d5bc dc23 8bbe 3cb1 153f e4ec d43e
00000240: c56b 08bb f03a 2e3e f88b 9abe 6807 ee3d
00000250: 8f7b 4abd 0c8e 21be 66b7 863e 80a3 993c
00000260: 5b16 93be 38ca 723d 567d b3be 48c7 cc3b
00000270: 54c2 933e 718d 333f 94c0 25be f274 8dbe
00000280: 3807 8c3e 58e0 ecbd 8845 943e 9ad1 663d
00000290: 8b88 12bf 8a46 133e 7bcf 0dbe d0bb afbe
000002a0: 373d 53bd 7f54 09be 505c 89bd 200b 7d3e
000002b0: ed60 f0bd 0b05 4ebe b0c8 5dbc cf5b 9e3e
000002c0: 4b3a 01be b8e2 f03d 9473 3c3d 54b5 5abd
000002d0: 0832 e4bd 1dff 44bf 1390 463f 1fea c33c
000002e0: d729 2a3e a00e e1be 3787 313d c360 8fbe
000002f0: a6c1 373e ffb0 35be 4b78 26be b837 11be
00000300: 8b06 8f3d 8477 843e 0437 533e a8bd 7c3e
00000310: aa26 1d3e f318 9c3d 1c09 9d3e 731a 513e
00000320: 974d e2be 8d07 c53d 77c7 e2bd e8f1 04be
00000330: 29e8 b9be 5580 fbbe 2141 aabd 18fc 0f3d
00000340: fcfc 6cbe 67b2 0bbe c503 f3be 1a81 c5be
00000350: e925 b3be c3ce febd dddf aa3d 1c47 d4be
00000360: 4ae9 8a3d 085c 053f be63 dbbd 2cb7 babd
00000370: d49b 533e 53b8 3e3e 31a9 7abe c684 aebe
00000380: 4845 903d 56a3 c23d df49 11bf a922 5abe
00000390: fc42 0ebf 7f89 e53c 7497 91be da71 3f3e
000003a0: 689a b83e 8d79 213e 8f77 3b3e 03fc ec3c
000003b0: 541d ed3c 465c 89bb c1a9 003e 8679 7a3e
000003c0: 912d b43d 9ad3 7bbd e9fe c4be 91f3 dcbe
000003d0: 5c63 e1bd 9e4e 20be 2e54 6bbe 7077 f63e
000003e0: 94dc 1d3e bdeb d03e 9153 7bbd a24b 47be
000003f0: 244c 42be ae1b 0a3e a073 fb3c 7164 f43e
-0.7617438 0.124113664 0.57019794 0.10213565 0.29578665 -0.36381897 0.0038016816 0.010131755
-0.2851635 -0.06308466 -0.21652842 -0.0958939 -0.31057447 -0.101896405 -0.33967614 0.12524056
0.109220214 -0.34916696 -0.213883 -1.1505046 -0.783737 -0.081235014 0.1464043 -0.49419007
0.12622015 0.019587833 0.20518905 0.19539286 -0.21186873 -0.23895958 -0.085741706 0.22458841
0.060429383 0.21890225 0.042980913 -0.42925623 -0.37510183 0.1685521 0.08489623 -0.43454036
-0.18658425 0.7756989 0.11766658 -0.06282782 -0.43099555 0.1983582 -0.1096034 -0.47369045
-0.028949155 0.00777999 -0.42050943 -0.022411978 0.12284859 0.10779235 -0.10100816 0.07208846
-0.4336139 -0.09348838 0.43753582 0.40893158 0.0032032619 -0.16878714 -0.44820306 -0.013685904
0.47294948 -0.66939837 -0.034886066 -0.22998685 -0.34204808 -0.5684078 -0.18140966 0.12899795
-0.35387906 -0.058878887 0.37589425 0.19711252 -0.3491207 -0.49701986 0.076245524 -0.113056555
-0.062841035 -0.0017675023 -0.16380002 0.39437672 -0.0554822 -0.16944024 0.013475262 -0.13854249
0.24527612 0.10056753 0.5368405 0.030537097 -0.3523599 -0.17348702 0.03256868 -0.23872331
0.04455003 -0.22854212 -0.10361741 0.067815736 -0.036365353 -0.0001551754 -0.15404768 0.23904954
0.124669 0.00022797259 0.5467434 -0.37101337 -0.16727354 0.27851576 0.25707963 0.0332943
0.21648747 -0.08416488 -0.19712198 -0.70452946 -0.6129076 -0.19115214 -0.24127202 0.24951841
-0.36339092 0.26817825 0.4874695 -0.19175895 -0.14180097 -0.16720536 0.12731883 -0.044190295
-0.09035902 0.11279491 -0.06387943 -0.68334323 -0.18342292 0.28324333 0.07860386 -0.19120163
-0.015057416 0.2113244 -0.10789618 -0.11151842 -0.026001075 -0.27175796 0.58473563 0.41586983
-0.0020816189 0.1701467 -0.30184913 0.116225064 -0.04943424 -0.15776843 0.26311797 0.01875472
-0.28727993 0.059274882 -0.3505656 0.006249342 0.28859198 0.701377 -0.16186744 -0.27628285
0.27349257 -0.11566228 0.28959298 0.056352235 -0.572396 0.14382377 -0.13848679 -0.34322977
-0.05157205 -0.13411139 -0.0670706 0.24711275 -0.11737237 -0.20119111 -0.013536617 0.3092942
-0.12619893 0.11761993 0.04600866 -0.053395584 -0.11142355 -0.7695177 0.7756359 0.023915349
0.16617523 -0.4395647 0.04334184 -0.2800351 0.17944965 -0.177433 -0.16256826 -0.14181411
0.0698367 0.25872433 0.20626456 0.24681723 0.1534678 0.07621946 0.30671012 0.20420246
-0.4419982 0.09620581 -0.11073201 -0.12982905 -0.36309937 -0.49121347 -0.083132036 0.035152525
-0.23143381 -0.13642274 -0.47463813 -0.3857506 -0.3498986 -0.124417804 0.0834348 -0.41460502
0.067827776 0.52093554 -0.10712384 -0.091169685 0.20664912 0.18625002 -0.24478604 -0.34085673
0.07044464 0.0950381 -0.56753343 -0.21302284 -0.5557096 0.028019665 -0.28435862 0.18695775
0.36055303 0.15769024 0.18307327 0.028928762 0.028944649 -0.004191908 0.12564756 0.2446042
0.087977536 -0.061481096 -0.3847573 -0.43154576 -0.110052794 -0.1565499 -0.22981331 0.48138
0.15416175 0.40804854 -0.061358992 -0.19462445 -0.18974358 0.13487121 0.030694783 0.4773288

bias f4 [64]
00000000: 5a00 60b9 1467 0138 b6f7 cc38 d212 a937
00000010: 465e 0439 c537 e437 8dc3 2eb9 edbb 59b7
00000020: e37c dfb8 156f feb5 fb20 56b8 9c5f ac38
00000030: 04ed cbb7 73fe 15b8 a5b1 35b8 439e 31b7
00000040: 3fe9 3538 ce2c 1c39 9849 60b8 c5f4 90b8
00000050: 559c 8338 e2fa b937 4648 8836 1c8e 6439
00000060: ec4b c936 1f40 19b8 efd1 b0b6 8dce 70b6
00000070: 68c1 c037 8b08 ecb8 9436 5038 7c32 91b7
00000080: 2f82 f338 0327 1539 7178 5037 399e 0bb8
00000090: 8e7d 9938 ebe6 35b8 5731 17b7 53ad e137
000000a0: 4296 1537 0a96 0a39 cb11 2ab9 7d1b dbb7
000000b0: fdcf 6437 4125 de37 ce5e a6b7 e9d6 97b8
000000c0: 5afc 4738 7900 6637 8748 a336 8666 81b8
000000d0: 622e 13b8 5e6a 9cb6 8442 24b8 1e62 22b8
000000e0: dcf9 efb8 7087 7d38 b00c 51b9 ef0a 59b7
000000f0: ea7e 9237 fdd4 2737 2e37 3bb7 d505 1f38
-0.00021362436 3.0851996e-05 9.773618e-05 2.0155134e-05 0.0001262362 2.7205688e-05 -0.00016666781 -1.2977963e-05
-0.000106567306 -1.8956804e-06 -5.105229e-05 8.219408e-05 -2.4309855e-05 -3.5761343e-05 -4.3319207e-05 -1.058687e-05
4.337099e-05 0.0001489401 -5.34743e-05 -6.912047e-05 6.275686e-05 2.2170545e-05 4.0615296e-06 0.00021796714
5.9991053e-06 -3.653776e-05 -5.269648e-06 -3.5883015e-06 2.2978245e-05 -0.00011254948 4.9641894e-05 -1.7308856e-05
0.000116113915 0.0001422428 1.2425809e-05 -3.328754e-05 7.318995e-05 -4.3368822e-05 -9.011789e-06 2.69028e-05
8.916077e-06 0.000132166 -0.00016219092 -2.6119635e-05 1.3638285e-05 2.648181e-05 -1.9832889e-05 -7.240271e-05
4.7680318e-05 1.3709178e-05 4.866222e-06 -6.170296e-05 -3.509073e-05 -4.661545e-06 -3.9162594e-05 -3.871519e-05
-0.00011442948 6.0446037e-05 -0.0001993652 -1.2936754e-05 1.7463655e-05 1.0003566e-05 -1.1158916e-05 3.7913986e-05

weight f4 [64]
00000000: 5197 0c40 1dc8 f73f 2761 0c40 e5dc 0840
00000010: 8aeb 0c40 52b3 0340 31e6 0640 35f8 0240
00000020: 4995 0040 76b4 1f40 561d 1d40 b694 ca3f
00000030: 3d65 893f c1a9 d53f fac9 fa3f 5d7a c83f
00000040: d15a 0140 b214 0a40 1060 0340 698b 2840
00000050: 58b8 0540 907d f43f 0212 e93f b5d6 1a40
00000060: 3ba3 0c40 4086 1240 b18d d43f 405b ea3f
00000070: 4142 0840 96e5 c93f b8e9 0c40 df23 0240
00000080: 23dc 0440 d2bc d33f 88bc e63f e83a f73f
00000090: cd03 0940 d760 e43f 27c4 0c40 8d0e e73f
000000a0: 53e6 fc3f d7b7 0740 005e 0340 797f 0640
000000b0: 6d1b f83f 0fdc 1240 60fc ff3f cf1f fa3f
000000c0: da78 0340 1326 e83f deee 0940 708b d13f
000000d0: 4ae1 ea3f e0ff 1040 92d7 df3f 9405 1640
000000e0: ac85 0040 0dab f03f 041d 1a40 660c fb3f
000000f0: 4bfa 0240 9b61 ef3f e1e0 d13f 3513 0640
2.1967356 1.9357945 2.1934297 2.1384823 2.2018762 2.0578198 2.1077998 2.0463994
2.0091116 2.4953895 2.4549155 1.5826633 1.073402 1.669243 1.9592888 1.5662342
2.021168 2.1575131 2.0527382 2.633509 2.0893764 1.9100819 1.820862 2.4193547
2.1974628 2.289444 1.6605741 1.8309097 2.1290438 1.5773189 2.201765 2.0334394
2.075936 1.6541998 1.8026285 1.9314852 2.140857 1.7842053 2.1994722 1.8051316
1.9757789 2.1205957 2.0526123 2.1015303 1.938337 2.2946813 1.9998894 1.9540957
2.0542512 1.8136619 2.1552043 1.6370678 1.8350003 2.2656174 1.7487662 2.3440905
2.0081587 1.88022 2.408021 1.9613159 2.0465267 1.8701662 1.6396753 2.0949223

bias f4 [64]
00000000: 2f04 dcbf 9496 aabf 9152 e0bf a0cd 94bf
00000010: 9f47 a9bf eb67 cdbf 9744 bcbf 1b2b bdbf
00000020: 5c2f 7fbf f4d1 c0bf ddbd debf 62f5 84bf
00000030: 520f dbbe a2c5 99bf 822e 8cbf f9bd 53bf
00000040: c075 79bf 9164 b0bf 8c7b 8fbf 771b 91bf
00000050: 3c87 d3bf d028 cebf 8da0 84bf c440 f4bf
00000060: e9bb babf f37f bdbf 10cf 7bbf 72c1 a8bf
00000070: 916a 96bf 8d99 74bf 009e a2bf a818 95bf
00000080: 1898 e0bf 0b0e 90bf 4239 8bbf 7a43 c2bf
00000090: d188 cdbf 4775 e9be 8247 aabf bb25 89bf
000000a0: 561f 96bf b4e8 a0bf beeb e0bf 1ec2 92bf
000000b0: dea1 82bf 26e4 febf a1a7 b2bf 19d9 dfbf
000000c0: f507 a7bf 49d2 81bf b9f8 94bf baf3 8dbf
000000d0: f414 88bf 02cf 9fbf b99f a7bf 9aee e4bf
000000e0: 64dd cbbf 73d9 7fbf c40f cabf 28fb b1bf
000000f0: 6e7a babf 40de d6bf 65c3 2cbf 1a2b acbf
-1.7188777 -1.3327203 -1.7525197 -1.1625252 -1.3224982 -1.6047338 -1.4708432 -1.477878
-0.9968164 -1.5064073 -1.7401692 -1.0387385 -0.42785126 -1.2013438 -1.0951693 -0.8271175
-0.974453 -1.378069 -1.1209579 -1.1336507 -1.6525645 -1.6106205 -1.0361496 -1.9082265
-1.4588596 -1.4804672 -0.9836283 -1.3184035 -1.1751271 -0.955468 -1.2704468 -1.164815
-1.7546415 -1.1254286 -1.0876849 -1.5176842 -1.6057378 -0.45597288 -1.3303072 -1.071464
-1.1728313 -1.2571015 -1.7571943 -1.146549 -1.0205648 -1.9913375 -1.3957406 -1.7488128
-1.3049303 -1.0142299 -1.1638404 -1.1090004 -1.0631394 -1.2485049 -1.3095618 -1.7885315
-1.5926938 -0.99941176 -1.5786061 -1.3904772 -1.4568613 -1.6786575 -0.6748565 -1.3450654

running_mean f4 [64]
00000000: dbd4 a8bf 74f3 70bf c13a 0b3f cfc6 ba3e
00000010: 108a d83d 4184 4b3e ea79 89bd d515 86be
00000020: 1bf9 adbf ddc6 84bf 455c abbf 37d6 52bd
00000030: 9ea6 60bf 7e9d 953d 4907 0cc0 511c 30bf
00000040: 2183 0e3f 9861 81bf cbaf 2fbf d07f 50bf
00000050: 731c 8e3f 6a35 c93e 64cf 9cbe fced a6bf
00000060: d56b dc3e 8304 49bf 81e2 0fbf 00a3 783e
00000070: 882e 15bf b7f0 813f bf75 e9be b7a0 6c3e
00000080: ed41 383e 3bba ffbe de63 a5be f746 463f
00000090: 33b5 37bf 2037 e4bf 9ed8 253f 9a2d 32bf
000000a0: b8e3 7cbe 28f0 b5be 14bb 08bf df08 f7be
000000b0: 9c46 e13d 2ad7 b83d d997 a63d 5ce8 01bf
000000c0: fbc4 263f b661 31bf 89f4 df3e 87ea 39be
000000d0: 62c2 b2be 9481 d23e 7111 65be 1d8a 2a3f
000000e0: 255c aabf 1e40 713e fa34 98bf 11a3 8ebe
000000f0: 63a7 dfbe 7214 923f 7e6c 53c0 30c2 e4bf
-1.3189958 -0.9412148 0.54386526 0.36479804 0.10573208 0.1987467 -0.067127064 -0.26188532
-1.3591646 -1.0373188 -1.3387533 -0.051473822 -0.8775424 0.0730543 -2.1879447 -0.6879321
0.55668837 -1.0107908 -0.68627614 -0.81445026 1.1102432 0.39298564 -0.30626976 -1.3041377
0.4305102 -0.7852251 -0.5620499 0.2428093 -0.58274126 1.0151585 -0.45597646 0.23108183
0.17993899 -0.4994677 -0.32302755 0.77452034 -0.71760863 -1.7829323 0.64783657 -0.6960083
-0.24696243 -0.35534787 -0.5341046 -0.48248956 0.10999796 0.09025414 0.081344314 -0.5074518
0.6514432 -0.6928972 0.43741253 -0.18155871 -0.34913927 0.41114485 -0.22369935 0.66616994
-1.330937 0.23559615 -1.1891167 -0.27858785 -0.43682393 1.141249 -3.3034968 -1.7871761

running_var f4 [64]
00000000: ba87 1940 c285 5040 72a1 fd3f d1c3 2a40
00000010: 72f4 3a40 14ad 2040 0992 0a40 9d7e f33f
00000020: 276b 2d40 c220 6e40 2cb6 2840 d48a a43f
00000030: 84b1 e93f a6cb 1d40 38d6 0740 b618 d63f
00000040: 37bf 2240 0088 3140 cf73 fb3f 0d0e 2b40
00000050: b506 1b40 d0e7 0640 c75d db3f f7a8 1c40
00000060: c134 3f40 bd64 1040 d1b0 dc3f ca93 0740
00000070: 5cf8 4e40 13d5 0040 91ac 2e40 341a 1840
00000080: ae95 1040 c396 f73f 2a7c 0c40 3369 5840
00000090: cffa f33f 31ca 4140 0135 2040 f690 2140
000000a0: 11fa 0540 0471 1f40 30fb f43f 5048 e33f
000000b0: 864d 5540 e044 1e40 b488 c73f b7f2 e13f
000000c0: eb42 1440 c268 2840 2610 2240 41e5 ca3f
000000d0: a36d 2740 d596 1f40 9d7e f73f 2e47 3140
000000e0: 864c 0240 cf4f d83f 9910 eb3f ef8f dc3f
000000f0: be79 1440 13dc 2540 8ffd 2340 c648 2440
2.398909 3.258164 1.9814894 2.6682017 2.9211698 2.5105639 2.1651633 1.9023014
2.709665 3.7207494 2.636119 1.2854867 1.8257298 2.4655547 2.1224499 1.6726291
2.5429208 2.7739258 1.9644717 2.6727326 2.4222844 2.1078987 1.7137994 2.4478128
2.9875948 2.2561486 1.724146 2.1183953 3.2339087 2.013005 2.7292826 2.3765993
2.2591357 1.9342884 2.1950784 3.3814209 1.9060916 3.0279658 2.503235 2.5244727
2.0933878 2.491273 1.9139156 1.7756443 3.3328567 2.4729538 1.5588593 1.7652196
2.3165843 2.631394 2.5322356 1.5851213 2.6160667 2.493581 1.9335514 2.7699695
2.0359206 1.6899356 1.836444 1.7231425 2.3199306 2.5915573 2.562351 2.5669417
